(cpl1) C:\Users\manas\Desktop\CS 597\project\cpl>python train.py --config-path config/charades/main.json --log_dir logs
train: 10602 samples, test: 3158 samples
CPL(
  (frame_fc): Linear(in_features=1024, out_features=256, bias=True)
  (word_fc): Linear(in_features=300, out_features=256, bias=True)
  (trans): DualTransformer(
    (decoder1): TransformerDecoder(
      (decoder_layers): ModuleList(
        (0): TransformerDecoderLayer(
          (self_attn): MultiheadAttention(
            (out_proj): Linear(in_features=256, out_features=256, bias=True)
          )
          (self_attn_layer_norm): LayerNorm((256,), eps=1e-05, elementwise_affine=True)
          (encoder_attn): MultiheadAttention(
            (out_proj): Linear(in_features=256, out_features=256, bias=True)
          )
          (encoder_attn_layer_norm): LayerNorm((256,), eps=1e-05, elementwise_affine=True)
          (fc1): Linear(in_features=256, out_features=512, bias=True)
          (fc2): Linear(in_features=512, out_features=256, bias=True)
          (final_layer_norm): LayerNorm((256,), eps=1e-05, elementwise_affine=True)
        )
        (1): TransformerDecoderLayer(
          (self_attn): MultiheadAttention(
            (out_proj): Linear(in_features=256, out_features=256, bias=True)
          )
          (self_attn_layer_norm): LayerNorm((256,), eps=1e-05, elementwise_affine=True)
          (encoder_attn): MultiheadAttention(
            (out_proj): Linear(in_features=256, out_features=256, bias=True)
          )
          (encoder_attn_layer_norm): LayerNorm((256,), eps=1e-05, elementwise_affine=True)
          (fc1): Linear(in_features=256, out_features=512, bias=True)
          (fc2): Linear(in_features=512, out_features=256, bias=True)
          (final_layer_norm): LayerNorm((256,), eps=1e-05, elementwise_affine=True)
        )
        (2): TransformerDecoderLayer(
          (self_attn): MultiheadAttention(
            (out_proj): Linear(in_features=256, out_features=256, bias=True)
          )
          (self_attn_layer_norm): LayerNorm((256,), eps=1e-05, elementwise_affine=True)
          (encoder_attn): MultiheadAttention(
            (out_proj): Linear(in_features=256, out_features=256, bias=True)
          )
          (encoder_attn_layer_norm): LayerNorm((256,), eps=1e-05, elementwise_affine=True)
          (fc1): Linear(in_features=256, out_features=512, bias=True)
          (fc2): Linear(in_features=512, out_features=256, bias=True)
          (final_layer_norm): LayerNorm((256,), eps=1e-05, elementwise_affine=True)
        )
      )
    )
    (decoder2): TransformerDecoder(
      (decoder_layers): ModuleList(
        (0): TransformerDecoderLayer(
          (self_attn): MultiheadAttention(
            (out_proj): Linear(in_features=256, out_features=256, bias=True)
          )
          (self_attn_layer_norm): LayerNorm((256,), eps=1e-05, elementwise_affine=True)
          (encoder_attn): MultiheadAttention(
            (out_proj): Linear(in_features=256, out_features=256, bias=True)
          )
          (encoder_attn_layer_norm): LayerNorm((256,), eps=1e-05, elementwise_affine=True)
          (fc1): Linear(in_features=256, out_features=512, bias=True)
          (fc2): Linear(in_features=512, out_features=256, bias=True)
          (final_layer_norm): LayerNorm((256,), eps=1e-05, elementwise_affine=True)
        )
        (1): TransformerDecoderLayer(
          (self_attn): MultiheadAttention(
            (out_proj): Linear(in_features=256, out_features=256, bias=True)
          )
          (self_attn_layer_norm): LayerNorm((256,), eps=1e-05, elementwise_affine=True)
          (encoder_attn): MultiheadAttention(
            (out_proj): Linear(in_features=256, out_features=256, bias=True)
          )
          (encoder_attn_layer_norm): LayerNorm((256,), eps=1e-05, elementwise_affine=True)
          (fc1): Linear(in_features=256, out_features=512, bias=True)
          (fc2): Linear(in_features=512, out_features=256, bias=True)
          (final_layer_norm): LayerNorm((256,), eps=1e-05, elementwise_affine=True)
        )
        (2): TransformerDecoderLayer(
          (self_attn): MultiheadAttention(
            (out_proj): Linear(in_features=256, out_features=256, bias=True)
          )
          (self_attn_layer_norm): LayerNorm((256,), eps=1e-05, elementwise_affine=True)
          (encoder_attn): MultiheadAttention(
            (out_proj): Linear(in_features=256, out_features=256, bias=True)
          )
          (encoder_attn_layer_norm): LayerNorm((256,), eps=1e-05, elementwise_affine=True)
          (fc1): Linear(in_features=256, out_features=512, bias=True)
          (fc2): Linear(in_features=512, out_features=256, bias=True)
          (final_layer_norm): LayerNorm((256,), eps=1e-05, elementwise_affine=True)
        )
      )
    )
  )
  (fc_comp): Linear(in_features=256, out_features=1112, bias=True)
  (fc_gauss): Linear(in_features=256, out_features=16, bias=True)
  (word_pos_encoder): SinusoidalPositionalEmbedding()
)
Total: 5375680 Trainable: 5375680
Start Epoch 1
Epoch 1, Batch 50, lr = 0.00005, final_loss = 6.2529, nll_loss = 6.2098, ref_nll_loss = 6.2961, ivc_loss = 0.5462, neg_loss_1 = 0.0481, neg_loss_2 = 0.0459, ref_loss = 0.0391, div_loss = 0.0826, 0.363 seconds/batch
Epoch 1, Batch 100, lr = 0.00010, final_loss = 4.7349, nll_loss = 4.7024, ref_nll_loss = 4.7674, ivc_loss = 0.2312, neg_loss_1 = 0.0440, neg_loss_2 = 0.0441, ref_loss = 0.0472, div_loss = 0.0192, 0.350 seconds/batch
…
