…
ochs': 30, 'model_saved_path': 'checkpoints/charades/base'}, 'model': {'name': 'CPL', 'config': {'frames_input_size': 1024, 'words_input_size': 300, 'hidden_size': 256, 'use_negative': True, 'num_props': 8, 'sigma': 9, 'gamma': 0.5, 'dropout': 0.1, 'DualTransformer': {'d_model': 256, 'num_heads': 4, 'num_decoder_layers1': 3, 'num_decoder_layers2': 3, 'dropout': 0.1}}}, 'loss': {'margin_1': 0.1, 'margin_2': 0.15, 'lambda': 0.14, 'alpha_1': 1, 'alpha_2': 3}, 'vote': False}
train: 10602 samples, test: 3158 samples
2022-12-12 22:41:01,674 - train: 10602 samples, test: 3158 samples
CPL(
  (frame_fc): Linear(in_features=1024, out_features=256, bias=True)
  (word_fc): Linear(in_features=300, out_features=256, bias=True)
  (trans): DualTransformer(
    (decoder1): TransformerDecoder(
      (decoder_layers): ModuleList(
        (0): TransformerDecoderLayer(
          (self_attn): MultiheadAttention(
            (out_proj): Linear(in_features=256, out_features=256, bias=True)
          )
          (self_attn_layer_norm): LayerNorm((256,), eps=1e-05, elementwise_affine=True)
          (encoder_attn): MultiheadAttention(
            (out_proj): Linear(in_features=256, out_features=256, bias=True)
          )
          (encoder_attn_layer_norm): LayerNorm((256,), eps=1e-05, elementwise_affine=True)
          (fc1): Linear(in_features=256, out_features=512, bias=True)
          (fc2): Linear(in_features=512, out_features=256, bias=True)
          (final_layer_norm): LayerNorm((256,), eps=1e-05, elementwise_affine=True)
        )
        (1): TransformerDecoderLayer(
          (self_attn): MultiheadAttention(
            (out_proj): Linear(in_features=256, out_features=256, bias=True)
          )
          (self_attn_layer_norm): LayerNorm((256,), eps=1e-05, elementwise_affine=True)
          (encoder_attn): MultiheadAttention(
            (out_proj): Linear(in_features=256, out_features=256, bias=True)
          )
          (encoder_attn_layer_norm): LayerNorm((256,), eps=1e-05, elementwise_affine=True)
          (fc1): Linear(in_features=256, out_features=512, bias=True)
          (fc2): Linear(in_features=512, out_features=256, bias=True)
          (final_layer_norm): LayerNorm((256,), eps=1e-05, elementwise_affine=True)
        )
        (2): TransformerDecoderLayer(
          (self_attn): MultiheadAttention(
            (out_proj): Linear(in_features=256, out_features=256, bias=True)
          )
          (self_attn_layer_norm): LayerNorm((256,), eps=1e-05, elementwise_affine=True)
          (encoder_attn): MultiheadAttention(
            (out_proj): Linear(in_features=256, out_features=256, bias=True)
          )
          (encoder_attn_layer_norm): LayerNorm((256,), eps=1e-05, elementwise_affine=True)
          (fc1): Linear(in_features=256, out_features=512, bias=True)
          (fc2): Linear(in_features=512, out_features=256, bias=True)
          (final_layer_norm): LayerNorm((256,), eps=1e-05, elementwise_affine=True)
        )
      )
    )
    (decoder2): TransformerDecoder(
      (decoder_layers): ModuleList(
        (0): TransformerDecoderLayer(
          (self_attn): MultiheadAttention(
            (out_proj): Linear(in_features=256, out_features=256, bias=True)
          )
          (self_attn_layer_norm): LayerNorm((256,), eps=1e-05, elementwise_affine=True)
          (encoder_attn): MultiheadAttention(
            (out_proj): Linear(in_features=256, out_features=256, bias=True)
          )
          (encoder_attn_layer_norm): LayerNorm((256,), eps=1e-05, elementwise_affine=True)
          (fc1): Linear(in_features=256, out_features=512, bias=True)
          (fc2): Linear(in_features=512, out_features=256, bias=True)
          (final_layer_norm): LayerNorm((256,), eps=1e-05, elementwise_affine=True)
        )
        (1): TransformerDecoderLayer(
          (self_attn): MultiheadAttention(
            (out_proj): Linear(in_features=256, out_features=256, bias=True)
          )
          (self_attn_layer_norm): LayerNorm((256,), eps=1e-05, elementwise_affine=True)
          (encoder_attn): MultiheadAttention(
            (out_proj): Linear(in_features=256, out_features=256, bias=True)
          )
          (encoder_attn_layer_norm): LayerNorm((256,), eps=1e-05, elementwise_affine=True)
          (fc1): Linear(in_features=256, out_features=512, bias=True)
          (fc2): Linear(in_features=512, out_features=256, bias=True)
          (final_layer_norm): LayerNorm((256,), eps=1e-05, elementwise_affine=True)
        )
        (2): TransformerDecoderLayer(
          (self_attn): MultiheadAttention(
            (out_proj): Linear(in_features=256, out_features=256, bias=True)
          )
          (self_attn_layer_norm): LayerNorm((256,), eps=1e-05, elementwise_affine=True)
          (encoder_attn): MultiheadAttention(
            (out_proj): Linear(in_features=256, out_features=256, bias=True)
          )
          (encoder_attn_layer_norm): LayerNorm((256,), eps=1e-05, elementwise_affine=True)
          (fc1): Linear(in_features=256, out_features=512, bias=True)
          (fc2): Linear(in_features=512, out_features=256, bias=True)
          (final_layer_norm): LayerNorm((256,), eps=1e-05, elementwise_affine=True)
        )
      )
    )
  )
  (fc_comp): Linear(in_features=256, out_features=1112, bias=True)
  (fc_gauss): Linear(in_features=256, out_features=16, bias=True)
  (word_pos_encoder): SinusoidalPositionalEmbedding()
)
Total: 5375680 Trainable: 5375680
load model from checkpoints\charades\base\model-best-max.pt, num_updates 5644.
2022-12-12 22:41:02,677 - load model from checkpoints\charades\base\model-best-max.pt, num_updates 5644.
| R@1,mIoU 0.4362 | R@1,IoU@0.1 0.7660 | R@1,IoU@0.3 0.6757 | R@1,IoU@0.5 0.4896 | R@1,IoU@0.7 0.2232 | R@1,IoU@0.9 0.0320 | R@5,mIoU 0.6681 | R@5,IoU@0.1 0.9877 | R@5,IoU@0.3 0.9630 | R@5,IoU@0.5 0.8217 | R@5,IoU@0.7 0.5013 | R@5,IoU@0.9 0.0817 |
…
